data.pth (torch, 5866 bytes, 6 tensors)

l1.weight f4 [8, 62]
00000000: dbec 64be c608 923e 751c a2be 3f38 0d3f
00000010: d9a4 933e cfe4 9e3e 9f08 783d de92 463d
00000020: dfd1 06bf 3377 c0be fba0 14bf 4e7b f63e
00000030: bb61 4f3f 39c6 8a3e a246 593f 6b81 1bbe
00000040: 065b 913d 6d8c 0c3e 3646 453f 5427 0f3f
00000050: dbb0 74bd fb21 62bd 8a46 233f 1c21 02be
00000060: 5f70 3b3f da84 463f 9f43 563f 8eaf 153f
00000070: 034a 0bbe 3134 a93e 89a8 433e d8fe 1c3f
00000080: 4a4d 5a3e 9cde 9b3e 1085 8f3d 461e 673f
00000090: 7736 69bd b751 b9be 6654 533e efb9 1d3e
000000a0: 9c48 513f ff03 b23e 2bb6 b9be 562b 9abd
000000b0: 6869 38be 5b34 c53e 2f09 923e 75ea ca3e
000000c0: e0ef 383f a78c 523e b60e 413e daa2 ed3e
000000d0: 7410 e43d 273e 2ebf e0fb 8dbe a00e c83e
000000e0: cf62 26be aeba b3bd b854 b33e 1ef8 273f
000000f0: 98ab c6bd 751f 9c3d 0f59 48be ba42 7d3e
00000100: 32e3 a8be 1dc0 083f 77f3 d13e ffcb 0a3e
00000110: 8d20 2a3f 3756 b6be 4c24 08bf 70fe dabe
00000120: 357b bbbe f73c d03e a5fa 003f 419b 913b
00000130: 3885 e63e 47a4 4abd f842 02bf 2ba0 373f
00000140: bc0b 0b3f 0976 1a3f 123a 5b3f 38f3 00bf
00000150: c5d8 363f b6e0 b2be a1c1 353f 0aeb 083f
00000160: 9764 123f a081 d43e 9388 4cbe e434 0e3f
00000170: c08c 82bd d8d0 5f3f 3ac3 36be a09e ad3e
00000180: 3e6b 103f d989 083f 9264 aabd 35b1 84be
00000190: 7411 893d 9ab1 42be c2d4 ae3e 98a7 1abe
000001a0: 7742 acbe 1733 a7be 7112 9ebe 384b 1b3f
000001b0: 01bc 0f3f 2ec7 19bc 815c d33e adb5 0ebf
000001c0: 6f39 393f 03d7 993e bb1b 7a3e 143f 40bf
000001d0: e9e2 16be d609 8d3e c7fb 3cbe 7709 9abe
000001e0: 6437 84bc 6607 bc3e 8206 ebbd 6497 06bb
000001f0: 9dab a8be 4be5 513f 216c 163f 833d 243f
00000200: edca ea3e 240e 643f 46c5 a6be 92cb 1d3f
00000210: 5209 c53e 0b04 233f 262e d53e 13e0 0e3f
00000220: b125 91be e83b 0b3f 0f88 b1be 3f87 e7bd
00000230: c34d 76bf 810f 123f 4e39 92be 7c03 083f
00000240: 75b6 9abe 1228 b7be b8af 303f 58a8 29be
00000250: e08d 463f 1cac 4c3f d67f 183d bbeb 97bd
00000260: 0e0e d0bd b09b cf3e 9501 e73e 0e77 2a3f
00000270: aa6a f23e 2896 cf3d ee19 61be 8851 cfbe
00000280: fa4b b6be bf08 153f de02 1e3f 39a8 b9be
00000290: 7312 cabe ce11 233f 4ff5 e53e c037 fb3e
000002a0: 2d13 023f 1669 fabd 801d 65be 961c 473f
000002b0: 9fe0 41be e1b0 4abf 6908 fa3e 8696 ee3d
000002c0: d339 223f 57a9 42bf d8d3 30be afe2 2a3f
000002d0: 69bc 03be ac20 373f 8d9f 633f 3119 96be
000002e0: 00be 0f3f a39f af3e 61ca b83d 411a cdbb
000002f0: aefb e9be b89e 97be fc49 ee3e 2964 c63d
00000300: 71cb 133f 1c5a a4be 6f7d f0be 80dd 12bf
00000310: 3105 06bf ba9c 203f f833 253f ecb8 bfbd
00000320: 7942 093f 4ab9 5dbe cddc 6b3c 0a84 7f3c
00000330: 2c41 1f3f 0b15 343f 81f9 fc3e 8332 27bf
00000340: d99a 5d3f 0ca9 713c aa4a 673f 8dc0 403f
00000350: f0c9 253f 89da c73e 2ace 45be 188b 203f
00000360: 88af 6dbe 011d b33d 718f 15bd 313c ecbc
00000370: c72c a03e bd8a 2f3f b8bc 193e bbc5 c9be
00000380: 5f23 babd ed83 57be 406f e93e 44bb dfbd
00000390: 1279 efbe 1e21 9ebe 99d2 b2be a249 f03e
000003a0: 5d11 d43e 38e1 bcbd 7535 133f 0dcb b7bd
000003b0: c883 27be 5073 a83e 3955 5cbe ac2b 7a3e
000003c0: e193 6cbd 0dd7 813e eeff c0bd d875 1fbe
000003d0: 7ba0 88bd b8fc d83e f640 91be 7aa9 933d
000003e0: 1feb 1f3f 5b46 9f3e d7bf eebd 29a0 bbbe
000003f0: c9e5 3cbe 552b 08bf 81fe 583f c1fd a6bc
-0.22355978 0.2852232 -0.31662336 0.5516395 0.28836706 0.31033942 0.060555097 0.048479907
-0.5266399 -0.37590942 -0.58058137 0.4814095 0.810085 0.27104357 0.848734 -0.15186088
0.070974395 0.13725443 0.7706026 0.55919385 -0.059738975 -0.055208188 0.6377951 -0.12707943
0.7321834 0.77546465 0.8369693 0.58471 -0.13602452 0.3304763 0.1910726 0.6132636
0.21318546 0.30443275 0.070078015 0.9028057 -0.056936707 -0.36195156 0.20637664 0.1540296
0.8175142 0.34768674 -0.36271796 -0.07527797 -0.1800896 0.38516507 0.28522632 0.39632002
0.7224102 0.20561467 0.18853268 0.46413308 0.11135951 -0.68063587 -0.27731228 0.39073658
-0.1624863 -0.08775841 0.35025573 0.6561297 -0.09700698 0.076231875 -0.19565223 0.24732485
-0.32985836 0.5341814 0.4100606 0.13554381 0.6645592 -0.35612652 -0.53180385 -0.42772245
-0.36617437 0.40671512 0.50382453 0.0044435565 0.45023513 -0.049473073 -0.50883436 0.7172877
0.5431478 0.6033636 0.85635483 -0.5037112 0.71424514 -0.34937066 0.7099858 0.5348364
0.5718474 0.41505146 -0.19973974 0.55549455 -0.06374502 0.87428045 -0.1784791 0.33910084
0.5641364 0.5333534 -0.083199635 -0.25916448 0.06692782 -0.19013062 0.34146696 -0.15102994
-0.3364446 -0.32656166 -0.30873445 0.6066165 0.56146246 -0.009385867 0.41281512 -0.55745965
0.7235326 0.30046853 0.24424641 -0.7509625 -0.14734997 0.27546567 -0.1845542 -0.30085346
-0.016139694 0.36724395 -0.11475851 -0.0020537013 -0.3294343 0.819905 0.5875874 0.6415636
0.45857945 0.89084077 -0.32572383 0.6163875 0.38483673 0.63678044 0.4163677 0.5581066
-0.2834907 0.54388285 -0.34674117 -0.11305093 -0.96212405 0.5705491 -0.28559345 0.53130317
-0.3021733 -0.3577276 0.69018126 -0.16568124 0.77560234 0.7995012 0.03723129 -0.07418009
-0.10158931 0.40548468 0.45118394 0.66587913 0.47347003 0.10136062 -0.21982548 -0.4049189
-0.3560484 0.5821647 0.61723125 -0.36261156 -0.394672 0.6369904 0.44913718 0.4906597
0.5081051 -0.12227075 -0.22374535 0.77777994 -0.18933342 -0.79176146 0.4883454 0.11649804
0.6336948 -0.7603964 -0.17268312 0.6675214 -0.12864842 0.7153423 0.8891533 -0.29316095
0.5614929 0.3430148 0.09022976 -0.006259233 -0.4569983 -0.2961328 0.4654082 0.09687073
0.577323 -0.32099998 -0.46970698 -0.5736923 -0.5235167 0.62739146 0.64532423 -0.09361443
0.53617054 -0.21652713 0.014395905 0.015595445 0.6220882 0.7034461 0.49409106 -0.6531145
0.86564404 0.014749777 0.90348303 0.7529381 0.6476126 0.39033917 -0.19316927 0.6271224
-0.23211491 0.087457664 -0.03651375 -0.028837295 0.31284162 0.6857107 0.15013397 -0.3940867
-0.09088778 -0.2104642 0.4559269 -0.1092439 -0.46772057 -0.3088464 -0.34926298 0.46931177
0.41419497 -0.092226446 0.57503444 -0.08974276 -0.16358864 0.32900476 -0.21516885 0.24430722
-0.057758216 0.25359383 -0.09423815 -0.15572298 -0.06671234 0.4238031 -0.28369874 0.072100595
0.6246814 0.31108364 -0.11657684 -0.3664563 -0.18447031 -0.5319112 0.8476334 -0.020384671

l1.bias f4 [8]
00000000: c60d 4e3f 3d2b 413f c582 493f 1f66 5f3f
00000010: 5458 813f c003 e33e 9d08 be3e 44ab 833f
0.80489767 0.754566 0.78715163 0.872652 1.0105081 0.443388 0.37115946 1.0286641

l2.weight f4 [8, 8]
00000000: e287 6e3f a62b 8b3f 0907 e3be f99a 703f
00000010: 4851 cdbc 62ff 78bf 35ce 41bf a866 a1bc
00000020: bd65 843f 9aa3 ca3d 910c cabe c79c 443f
00000030: 3a81 6abf dc1a 81bf 5e82 f2be c749 9f3f
00000040: a7ee e73d 5a12 0b3e 513b 39bf 3c2c 8d3f
00000050: d10a a23f 8a50 503e de54 69bf f683 5d3f
00000060: 9e75 9a3f e68c be3f f51a 813f 0067 a03f
00000070: b3cf 7f3d f1fb 78bf 0a94 ddbe 9228 25bf
00000080: 3138 6a3f 2c8c 933d c561 ba3e 7ab1 e1be
00000090: cfa0 063f db0e 803f 72f6 643f 3b03 99bf
000000a0: 623f 753e 82c9 47be 8039 9f3b d021 a3bd
000000b0: 4ae3 8abe c288 31be 9809 773d c85d 13be
000000c0: e9ef 833e 4354 7d3c 0fff ac3f b9f8 a7be
000000d0: 4e73 54bf c5b8 15bd 2b8a 933f 1b77 c33f
000000e0: 2f98 82be 7d02 58be e062 0c3d d5da 23be
000000f0: 3014 32bd 3c71 40be c2b7 1d3e c47d 46be
0.9317609 1.0872695 -0.44341305 0.9398647 -0.025063172 -0.97264683 -0.7570527 -0.01970227
1.0343548 0.09894486 -0.39462712 0.76801723 -0.91603434 -1.0086322 -0.47365087 1.244439
0.11324816 0.1358122 -0.72356135 1.1029124 1.2659551 0.20343223 -0.9114512 0.8652948
1.2067144 1.4886749 1.0086352 1.2531433 0.062453937 -0.9725943 -0.43277007 -0.6451503
0.9149199 0.0720447 0.36402717 -0.44080716 0.52589124 1.0004534 0.89438546 -1.1954111
0.2394996 -0.19510463 0.0048591495 -0.079654336 -0.27126533 -0.17337325 0.060311884 -0.14391243
0.25768974 0.015461984 1.3515338 -0.32806948 -0.8298844 -0.036553163 1.152654 1.5270723
-0.25506732 -0.21094699 0.034273982 -0.16001447 -0.043476284 -0.18793195 0.1540213 -0.19383913

l2.bias f4 [8]
00000000: 0167 22bd b2be a1be e6e4 533f 3a44 fc3e
00000010: e95f 8b3e d1d8 b4be 2bde 223f 02aa e9bd
-0.039649013 -0.315908 0.82771146 0.49270803 0.2722161 -0.35321668 0.6362025 -0.114093795

l3.weight f4 [9, 8]
00000000: 4775 2f3f f959 023f f12e 05bf 50c9 f33e
00000010: fe7d 07bf a874 763d 3afb c3bf dbcc 1dbe
00000020: 5382 2a3a f7da 423f 6c12 f93d 7fac a5bf
00000030: 7555 61bf dabe 76be 6d63 8f3e 1608 643e
00000040: 4c21 f53c 7b7e c4bf 6e7f debf 0ea3 5b3f
00000050: 026e 443e 4021 983d 90ed 343e 9d74 a3be
00000060: b90e 323f 4bc0 e5bf fb79 ff3e 43bd 253f
00000070: d43b 1cbf f7cb 843e 9fbc a9bf 63e7 6cbe
00000080: 163b 66bf 7c20 67bf 0120 b53e 8b76 27bf
00000090: 1c61 5c3f fe06 2e3e 3f37 39bf b122 afbe
000000a0: c104 9f3e 1733 143e 853c f9bd f2ff bb3e
000000b0: 1b05 d4bf 02be 5b3e b41e 2d3c 066c 5e3e
000000c0: ac6c 45bf 4ee0 bebf c130 9abf e240 91bf
000000d0: 02dd b8bc fd08 963e cb2d 7a3f 9568 a93e
000000e0: 4a92 98bf dba7 81bf aed9 b53f 1540 12bf
000000f0: e4c4 8fbf 58db b0be 18cd 82be 7a0f 82be
00000100: 93b8 e1bf 73e9 993e 1fc0 acbf 748b 6e3e
00000110: 39bf e8bf 8543 b23e a62a 233f 6020 babd
0.68538326 0.5091854 -0.5202475 0.47614527 -0.52926624 0.060169846 -1.5311043 -0.15410177
0.0006504405 0.76115364 0.12161717 -1.2943267 -0.8802102 -0.24096242 0.28005543 0.2226871
0.029923104 -1.5351099 -1.7382638 0.85795677 0.1918259 0.07428217 0.17668748 -0.31924906
0.69553715 -1.7949308 0.4989775 0.64741915 -0.6102879 0.25936863 -1.3260688 -0.23135142
-0.8993391 -0.9028394 0.3537598 -0.6541526 0.8608568 0.16994855 -0.72349924 -0.34206155
0.31058314 0.14472614 -0.12169746 0.36718708 -1.6564058 0.21459201 0.010566402 0.21720895
-0.77118945 -1.4912202 -1.2046129 -1.1347926 -0.022566322 0.29303733 0.97726125 0.33087602
-1.1919644 -1.012935 1.4207056 -0.5712903 -1.1231961 -0.34542346 -0.255471 -0.25402433
-1.7634453 0.3006092 -1.3496131 0.23295385 -1.8183357 0.34817138 0.6373695 -0.09088206

l3.bias f4 [9]
00000000: a7af ecbe 7acc 3dbe dace fbbd 50f3 ac3e
00000010: 669f 1a3f a4ca 633d 039f 0e3f 2829 0c3f
00000020: e01c 4ebd
-0.46227762 -0.18535033 -0.12295313 0.33779383 0.6039947 0.055613175 0.5571138 0.547503
-0.050320506
